Miniproject_1/bestmodel.pth (torch, 309161 bytes, 20 tensors)

encoder.0.0.weight f4 [32, 3, 3, 3]
0	0x3e271321	0.16315891
1	0xbc9076f0	-0.017634839
2	0x3dcf750a	0.10129745
3	0x3df7de86	0.1210299
4	0xbe1edd57	-0.15514122
5	0xbda0261a	-0.07819767
6	0xbe0b9f50	-0.13634992
7	0x3e141999	0.1446289
8	0x3e1f33c1	0.15547086
9	0xbca04cd0	-0.019567877
10	0x3e1f2273	0.15540485
11	0xbe3ceb90	-0.18449235
12	0xbe29ff3a	-0.16601267
13	0x3d3ef958	0.04662451
14	0xbde3709f	-0.11105465
15	0x3e152de5	0.14568289
16	0xbe41d7d2	-0.18929985
17	0xbbdc5a60	-0.0067246407
18	0x3de5eaee	0.1122645
19	0xbe123525	-0.14278086
20	0xbdb51987	-0.088427596
21	0x3e436187	0.19080172
22	0xbdd9cccf	-0.10634767
23	0xbdff738a	-0.12473209
24	0xbe1597ea	-0.14608732
25	0xbe2c5d0c	-0.1683237
26	0x3d328ba4	0.043590203
27	0x3c6f6560	0.014611572
28	0xbe419a90	-0.18906617
29	0x3e0598cd	0.1304657
30	0x3d35e214	0.044405058
31	0xbe444748	-0.19167817
32	0x3bbdf780	0.0057973266
33	0x3e0c062f	0.13674234
34	0x3dbb9162	0.09158589
35	0x3cce7610	0.025202781
36	0xbb3cb240	-0.0028792769
37	0xbd6b4d54	-0.057446793
38	0x3d78c57c	0.06073521
39	0xbcdf0120	-0.027222216
40	0xbd341a18	-0.043970197
41	0xbdfb84e5	-0.12281207
42	0xbe1eaaa4	-0.15494782
43	0x3d8324f6	0.06403534
44	0xbe317dee	-0.17333195
45	0xbcad9f80	-0.02119422
46	0x3d2f0388	0.042727977
47	0x3dfd58de	0.12370466
48	0xbd64a76c	-0.05582373
49	0xbdcd3ed8	-0.10021752
50	0x3e148f8b	0.14507882
51	0xbd498c60	-0.049206138
52	0x3e303cb7	0.17210661
53	0x3d41408c	0.047180697
54	0xbca65880	-0.020305872
55	0xbdc1f280	-0.09470081
56	0xbd5a1e80	-0.053251743
57	0xbdb83dfe	-0.08996199
58	0xbe007a65	-0.1254669
59	0xbe1c5c3e	-0.15269563
60	0xbcae0e80	-0.021247149
61	0xbdaa6606	-0.08320241
62	0x3d16db90	0.036830485
63	0x3e06bee3	0.13158755
64	0x3e1662f7	0.1468619
65	0x3e1d9939	0.15390481
66	0xbe2ace77	-0.16680323
67	0x3d830c62	0.06398846
68	0x3ded6822	0.115921274
69	0x3d12aef0	0.035811365
70	0xbe3f5edc	-0.1868853
71	0x3e359a85	0.17734726
72	0x3e11dadb	0.14243643
73	0x3cc29ed0	0.023757368
74	0xbd3d0810	-0.046150267
75	0xbe44f0b7	-0.1923245
76	0x3da7fbb6	0.08202307
77	0x3e2eab53	0.17057543
78	0xbdfa19fe	-0.12211989
79	0xbd0432a8	-0.032274872
80	0xbe2308f8	-0.1592139
81	0xbdaa613a	-0.08319326
82	0xbe2401f2	-0.16016367
83	0xbc7dd7c0	-0.015493333
84	0xbdd05d5e	-0.101740584
85	0xbe062f7d	-0.13104053
86	0x3d95e68a	0.073193625
87	0xbd5cd014	-0.053909376
88	0x3e2e64f7	0.17030703
89	0x3e376247	0.17908584
90	0x3e067b97	0.13133083
91	0x3e338cff	0.17534254
92	0x3e1d8dc1	0.15386106
93	0x3e43833b	0.19093029
94	0x3e3eda53	0.18637972
95	0x3d9745ee	0.07386385
96	0x3c788160	0.015167564
97	0xbe274f3c	-0.1633882
98	0x3db1087a	0.08644195
99	0xbe2a29a2	-0.16617444
100	0x3e10c68b	0.14138238
101	0xbad4eb80	-0.0016244501
102	0xbd85623a	-0.06512876
103	0x3e1b3d71	0.15160157
104	0x3c1fef00	0.009761572
105	0xbd689ac8	-0.056788236
106	0x3d84566a	0.06461795
107	0xbcc83ee0	-0.024444044
108	0x3debaa26	0.115070626
109	0xbe1d8c25	-0.15385492
110	0x3d0121d4	0.0315264
111	0x3ccd12c0	0.025033355
112	0xbd7933e8	-0.060840517
113	0xbd93bb73	-0.072134875
114	0x3e197d6f	0.14989255
115	0xbdea1dce	-0.11431466
116	0x3decbd4a	0.115595415
117	0x3d70cacc	0.058787152
118	0x3e239861	0.15976097
119	0xbe08460f	-0.13307975
120	0xbd801768	-0.062544644
121	0xbdbdb089	-0.09262187
122	0x3d7e7c94	0.062130526
123	0x3dfd9856	0.123825714
124	0x3de17b86	0.11009888
125	0x3e3d39bb	0.18479054
126	0x3e3c559b	0.18392031
127	0x3e08a26d	0.1334321
128	0xbdef0b63	-0.11672094
129	0x3da045b2	0.07825793
130	0x3cfe0028	0.031005934
131	0xbe259bf9	-0.1617278
132	0x3dc83646	0.09775977
133	0x3e38c353	0.1804326
134	0x3dc2f64a	0.09519632
135	0xbd1dc7f4	-0.03852077
136	0xbe2d948d	-0.16951199
137	0x3e0dfc97	0.13865887
138	0x3d07efbc	0.033187613
139	0xbe43a002	-0.19104007
140	0x3cb12718	0.021625087
141	0x3e0a8edf	0.13531063
142	0xbc8dd218	-0.017312095
143	0x3df0e012	0.11761488
144	0xbc963d28	-0.018339708
145	0xbe326d48	-0.174245
146	0xbe38bd09	-0.18040861
147	0xbe2d1587	-0.16902743
148	0x3e0bd85f	0.13656758
149	0x3d125754	0.035727814
150	0xbd8d2556	-0.06891887
151	0x3e39f363	0.18159251
152	0x3d3779cc	0.04479389
153	0x3d847756	0.06468074
154	0x3b1d4740	0.0023998767
155	0x3d5d53e0	0.054035068
156	0xbd40ed60	-0.04710138
157	0xbdf8a1e9	-0.12140257
158	0x3e27c137	0.163823
159	0x3d12b780	0.03581953
160	0x3e353269	0.17695011
161	0xbe2eddbd	-0.17076774
162	0xbd8a13e6	-0.067420766
163	0xbbc245e0	-0.00592874
164	0x3da093c6	0.078406855
165	0x3db35876	0.08757107
166	0x3d4fc0fc	0.050721154
167	0x3e37abf1	0.17936684
168	0xbce09358	-0.027414009
169	0xbdf6e4d5	-0.12055365
170	0x3daf78c6	0.085679576
171	0xbca57378	-0.020196661
172	0xbdb79eb7	-0.08965819
173	0x3e1872d5	0.14887555
174	0x3deb3b32	0.114859
175	0x3dc3d40e	0.095619306
176	0xbdb0e6d0	-0.08637774
177	0x3bf267c0	0.007397622
178	0xbb8db5a0	-0.00432463
179	0x3db3c2fa	0.08777423
180	0x3e416be3	0.18888812
181	0xbcaee3f0	-0.021348923
182	0xbdc23b70	-0.09483993
183	0x3dd46f5a	0.10372801
184	0xbd4e2b84	-0.05033447
185	0x3dac42de	0.084111914
186	0xbe25b09c	-0.16180652
187	0xbdecf846	-0.11570792
188	0x3e307d73	0.17235355
189	0x3bd8cd40	0.0066162646
190	0xbcd7a408	-0.026323333
191	0xbe369e47	-0.17833816
192	0x3daf664e	0.08564435
193	0xbe402554	-0.1876424
194	0xbe363a70	-0.1779573
195	0x3d77a324	0.060458317
196	0x3e22f65f	0.15914296
197	0xbe3d09fd	-0.18460841
198	0xbe256856	-0.16153082
199	0x3d0b44fc	0.034001336
200	0xbdf769a2	-0.12080695
201	0x3d926a76	0.07149212
202	0xbdb981c7	-0.09057956
203	0xbdf7e0f4	-0.12103453
204	0xbe3314f8	-0.17488468
205	0xbe264b56	-0.16239676
206	0x3e379505	0.1792794
207	0x3d7654f4	0.06013961
208	0x3e006751	0.12539412
209	0x3e214b81	0.15751459
210	0x3c88c318	0.01669459
211	0x3d1d9c44	0.038479105
212	0xbe332578	-0.17494762
213	0x3cb2beb8	0.021819457
214	0x3d8a647e	0.067574486
215	0x3e381af3	0.1797903
216	0xbd1a2284	-0.037630573
217	0x3d8a655a	0.067576125
218	0x3e3257eb	0.1741635
219	0x3d5b3f2c	0.053527042
220	0xbe17a8a1	-0.1481042
221	0x3db78c6a	0.08962329
222	0xbdca6b48	-0.098837435
223	0xbe316c78	-0.17326534
224	0x3c806b40	0.01567614
225	0x3d7ae564	0.06125392
226	0xbe2aeff8	-0.16693103
227	0x3e1c6611	0.1527331
228	0xbe0d6050	-0.13806272
229	0x3debed5e	0.115198836
230	0xbe29d86c	-0.16586465
231	0xbe30075d	-0.17190309
232	0x3e341d39	0.17589273
233	0xbdb26fdf	-0.08712744
234	0x3cf885c0	0.030337214
235	0xbdd011ad	-0.101596214
236	0x3dcb379e	0.099227175
237	0xbd963238	-0.07333797
238	0xbde197fa	-0.11015315
239	0xbe2a640a	-0.16639724
240	0xbbb3a660	-0.00548248
241	0xb9a7a000	-0.00031971931
242	0x3b5cb0c0	0.0033674687
243	0x3e12eeed	0.14348955
244	0xbe356266	-0.17713317
245	0xbd9591a7	-0.073031716
246	0x3c3f1490	0.011662617
247	0xbe0e374b	-0.1388828
248	0x3d8ffb8a	0.07030399
249	0xbd2678d4	-0.040642574
250	0x3e37a2cb	0.17933194
251	0x3e22e1d7	0.15906464
252	0x3c6bd970	0.014395103
253	0xbdd04895	-0.10170094
254	0xbe24a12b	-0.16077106
255	0xbcfb9250	-0.030709416

encoder.0.0.bias f4 [32]
0	0x3d481f08	0.04885772
1	0x3c9bcff8	0.019020066
2	0xbdf3b1b4	-0.118991286
3	0xbd1d1900	-0.03835392
4	0x3d099ab0	0.033594787
5	0x3c925300	0.017861843
6	0xbd864000	-0.06555176
7	0xbd97e9b0	-0.07417619
8	0x3e1e0c95	0.15434487
9	0xbdad195b	-0.08452102
10	0x3af43600	0.0018631816
11	0x3e0be34b	0.13660924
12	0xbe103dfe	-0.14086148
13	0x3e220689	0.15822805
14	0x3e4294c7	0.19002067
15	0xbe07e117	-0.13269459
16	0x3cf7b5c8	0.030238047
17	0xbe41864a	-0.18898883
18	0xbe3444dc	-0.17604393
19	0xbe04eafc	-0.12980264
20	0xbe0cbf1e	-0.1374478
21	0xbd685418	-0.056720823
22	0xbdc9f5f8	-0.09861368
23	0x3dc0869a	0.09400673
24	0x3e177ca3	0.14793639
25	0x3e08fe2d	0.1337821
26	0x3e405645	0.18782909
27	0xbe227f75	-0.15868933
28	0x3da5ce4a	0.08095987
29	0x3d66c600	0.05634117
30	0xbd853678	-0.0650453
31	0x3c2105c0	0.009828031

encoder.1.0.weight f4 [32, 32, 3, 3]
0	0xbc3c75a8	-0.011502661
1	0x3d57f3ad	0.05272262
2	0xbbb3f3f0	-0.005491726
3	0xbcd4dd76	-0.025984507
4	0xbd16eed4	-0.036848858
5	0x3d0c508b	0.0342565
6	0xbd059a90	-0.032618105
7	0xbd2e1c4e	-0.042507462
8	0x3c80ac76	0.015707236
9	0xbac3eea0	-0.0014948435
10	0xb8315000	-4.2274594e-05
11	0xbcb6e758	-0.02232711
12	0xbd5c156c	-0.053731367
13	0xbd2fe4c8	-0.042942792
14	0x3d258c09	0.04041675
15	0xbc24a7f8	-0.0100498125
16	0xbc033154	-0.008007366
17	0x3d31c7eb	0.043403547
18	0xbce90e66	-0.028449249
19	0xbd17ac84	-0.037029758
20	0x3d344849	0.04401425
21	0xbbfb2828	-0.007664699
22	0xbb9e7498	-0.0048356764
23	0x3d477bf7	0.048702206
24	0xbc1fd6d4	-0.009755809
25	0x3d02f77f	0.031974312
26	0x3d25342b	0.040332954
27	0x3c51974c	0.01279242
28	0x3d4939e7	0.049127486
29	0xbd65cb8d	-0.056102324
30	0x3cef5672	0.029216025
31	0xbbe62308	-0.007023219
32	0x3d5025f9	0.050817464
33	0xbc8120cc	-0.01576271
34	0x3cc4aee6	0.02400918
35	0xbd03c5f9	-0.032171223
36	0x3d6abc8b	0.057308715
37	0xb8edd200	-0.00011340156
38	0xba227780	-0.00061976165
39	0xbc8d656e	-0.01726028
40	0x3cca572a	0.024699766
41	0xbd469b72	-0.048488088
42	0x3c82928e	0.015939023
43	0x3cf91532	0.030405615
44	0x3c5e8f1c	0.013583925
45	0x3d666c9d	0.056255925
46	0xbd5af9ff	-0.05346107
47	0x3baf4f88	0.005350057
48	0xbd4dabcc	-0.050212666
49	0x3c90a1aa	0.017655212
50	0x3d5f564d	0.054525662
51	0xbcbc960a	-0.023020763
52	0xbd0d8bb0	-0.034557045
53	0x3bcf1738	0.0063199066
54	0xbcca4526	-0.024691176
55	0xbc4c1ab8	-0.012457542
56	0xbc2bf49c	-0.010495331
57	0x3d433381	0.04765654
58	0xbd618599	-0.05505905
59	0x3add6bc0	0.0016893074
60	0xb8230400	-3.8865954e-05
61	0xbbc68f50	-0.0060595647
62	0x3c91c0ea	0.017792184
63	0x3d50b9bb	0.050958376
64	0x3c0f3e34	0.008742858
65	0x3d5db55f	0.054128047
66	0xbb77e9b0	-0.0037828498
67	0xbd36b4ab	-0.044605892
68	0xbd0f7748	-0.035025865
69	0x3d62326b	0.055223864
70	0x3d5148b5	0.05109473
71	0x3d038489	0.032108817
72	0x3bcf2058	0.0063209943
73	0xbd1f0ffa	-0.038833596
74	0xbd3e7d1c	-0.046506032
75	0xbc30083c	-0.010744151
76	0xbc65a430	-0.014016196
77	0xbc24e90c	-0.010065328
78	0x3cbe5676	0.023234587
79	0x3c875b32	0.016522978
80	0xbd0f5fc3	-0.035003435
81	0xbcc14c82	-0.023596052
82	0xbc5632c0	-0.013073623
83	0xbb65db30	-0.0035073273
84	0x3b689bd0	0.0035493262
85	0xbcf7cf5e	-0.030250248
86	0xbd157664	-0.03648986
87	0x3d36a989	0.044595275
88	0x3c05569c	0.008138325
89	0x3d0c6fd5	0.03428634
90	0x3d53e879	0.051735375
91	0x3d208d6b	0.039197367
92	0xbd4fe8e4	-0.05075921
93	0xbd3c58d3	-0.045983147
94	0xbbe79488	-0.007067267
95	0xbc677d78	-0.014129035
96	0x3d5c4aeb	0.053782385
97	0xbc4fff9c	-0.012695219
98	0x3d3f260f	0.046667155
99	0xbd1ad320	-0.037799
100	0x3d7040c5	0.05865552
101	0xbd5abc80	-0.053402424
102	0xbd48097a	-0.048837163
103	0xbd0dacf5	-0.034588773
104	0x3d5bd8a9	0.05367342
105	0x3bc28448	0.0059361793
106	0xbb5e2570	-0.0033896826
107	0xbd5a3e74	-0.053282216
108	0x3d5bb2c7	0.053637292
109	0xbcca1358	-0.024667427
110	0x3c58092c	0.0131857805
111	0x3d0575a1	0.032582883
112	0x3d3344cd	0.043766785
113	0x3d45183b	0.04811881
114	0x3d37aec9	0.044844422
115	0xbc33d824	-0.010976825
116	0x3b4efd80	0.0031584203
117	0x3cb649ca	0.022251982
118	0x3d5a332f	0.05327147
119	0xbcc9a4cc	-0.024614714
120	0x3cce9fae	0.025222626
121	0x3d2d3f3b	0.04229663
122	0xbd65e84e	-0.056129746
123	0x3d354ac9	0.044260774
124	0x3c1e8b1c	0.009676721
125	0xbcd1b388	-0.025598302
126	0xbcdaf070	-0.026725978
127	0x3ca63b2e	0.020291891
128	0x3d5e8f17	0.05433568
129	0x3cc6c822	0.024265353
130	0xbd1963a8	-0.037448555
131	0xbc6961e0	-0.014244527
132	0xbc02b734	-0.007978249
133	0xbd537619	-0.0516263
134	0xbd2651f8	-0.040605515
135	0xbcc8d294	-0.024514474
136	0x3d15e9bf	0.03659987
137	0x3d3605cf	0.044439133
138	0x3d6b359b	0.05742417
139	0xbd12ec2e	-0.03586977
140	0xbcff106f	-0.031135766
141	0xbd314e52	-0.043287583
142	0xbd143c56	-0.036190353
143	0x3d29ae79	0.041426156
144	0xbd5b354a	-0.053517617
145	0x3d303c55	0.043026287
146	0x3bf516e8	0.0074795373
147	0x3d6a1557	0.057149258
148	0xbb984c08	-0.0046477355
149	0x3d12d2ff	0.035845753
150	0xbd47acda	-0.04874883
151	0x3d48ee5f	0.049055453
152	0x3cf12d86	0.029440653
153	0xbd34c980	-0.044137478
154	0xba2db480	-0.0006626323
155	0x3d045ac5	0.032313127
156	0xbd330755	-0.043708164
157	0x3d2a71d9	0.04161248
158	0x3cbdc97a	0.02316736
159	0x3d5b5fa3	0.053558003
160	0x3b1c97c0	0.002389416
161	0xbd454060	-0.048157096
162	0x3d416e83	0.047224533
163	0xbcca5f60	-0.024703681
164	0x3d2e437f	0.042544838
165	0xbcd71828	-0.026256636
166	0xbc3acc98	-0.011401318
167	0x3c9f8522	0.019472662
168	0x3d4b62e3	0.049654853
169	0xbd3177e4	-0.043327227
170	0x3d3287ab	0.043586414
171	0x3c35bccc	0.011092376
172	0xbccfaa5e	-0.025349792
173	0x3d3ed2cb	0.046587747
174	0xbd5fa45e	-0.054600112
175	0x3d4f2f55	0.05058225
176	0x3cacc706	0.021090996
177	0x3c0571a4	0.00814477
178	0x3cfa2082	0.030533079
179	0xbc55a4bc	-0.013039764
180	0xbc838e58	-0.016059086
181	0xbc132130	-0.0089800805
182	0x3cb3c9e2	0.021946851
183	0x3d02c637	0.031927314
184	0xbcb6fdf2	-0.022337887
185	0x3d4ac5a1	0.04950488
186	0x3d306833	0.043068122
187	0xbce852b1	-0.028359743
188	0xbd15aa64	-0.03653945
189	0x3d21ecd3	0.039532494
190	0x3d6030df	0.054734107
191	0xbd11842b	-0.035526436
192	0x3d1205e7	0.03565016
193	0xbd1ab74e	-0.03777247
194	0x3d12226d	0.035677362
195	0xbce1cde8	-0.027564004
196	0xbcc4b934	-0.024014093
197	0xbd1e5a3e	-0.03866028
198	0x3d1fea79	0.03904197
199	0xbc91740e	-0.017755534
200	0x3cf2be8e	0.02963188
201	0x3d14cde1	0.036329154
202	0xbd52c503	-0.051457416
203	0xbd4cb192	-0.04997403
204	0x3d0cff47	0.03442314
205	0xbd2a7b36	-0.04162141
206	0xbce8e061	-0.028427305
207	0xbd460599	-0.048345182
208	0x3bd3a128	0.0064584203
209	0xbc97aac0	-0.018514037
210	0x3d139489	0.036030326
211	0xbd2d68a6	-0.04233613
212	0x3cd8ef8a	0.026481409
213	0x3b3a54a0	0.0028431788
214	0xbc847afa	-0.016171921
215	0xbc8f0b3c	-0.017461412
216	0x3d65ad97	0.05607375
217	0xbd186d90	-0.037213862
218	0xbc598a04	-0.013277534
219	0xbca89826	-0.020580363
220	0x3d1f3aff	0.038874622
221	0x3c8fdd3a	0.017561544
222	0x3c902756	0.017596882
223	0xbd4a8548	-0.049443513
224	0xbd6be0ce	-0.057587437
225	0x3d405f13	0.04696567
226	0x3ce0dd4e	0.027449276
227	0xbd63e55b	-0.055638652
228	0x3d62fc09	0.05541614
229	0x3cc544da	0.024080683
230	0x3c8c8a86	0.017155897
231	0x3d09244f	0.033481892
232	0x3d3ab73b	0.0455849
233	0x3d46d3af	0.04854172
234	0xbb5312e0	-0.0032207295
235	0x3cfeadc6	0.031088721
236	0xbd421f90	-0.04739338
237	0xbcc245c8	-0.023714915
238	0xbb636dc0	-0.0034702867
239	0xbd0ce8c4	-0.03440167
240	0xbbaabcc0	-0.005210489
241	0xbb9697c0	-0.0045957267
242	0xbd37ce93	-0.04487474
243	0x3d7040c1	0.058655504
244	0xbc345f7c	-0.011009093
245	0xbc60e48c	-0.013726365
246	0xbcbbff6e	-0.022948947
247	0xbc531218	-0.012882732
248	0x3ca766ae	0.020434704
249	0x3b04f730	0.0020288937
250	0xbd6397b7	-0.05556461
251	0x3cefdf46	0.02928127
252	0xbcfa7729	-0.030574398
253	0xbc092ec0	-0.0083729625
254	0x3d003e7d	0.031309593
255	0x3c0aac04	0.008463863

encoder.1.0.bias f4 [32]
0	0xbd68fe7e	-0.056883328
1	0xbc57fb38	-0.013182454
2	0x3cda5272	0.026650641
3	0xbd565bb5	-0.052333552
4	0x3c34d38c	0.011036765
5	0x3c80febe	0.01574647
6	0x3a972600	0.0011531711
7	0x3c6085f4	0.013703812
8	0x3d2ab1a1	0.041673306
9	0xbd71164a	-0.058859147
10	0xbd6e8cd2	-0.058239765
11	0x3a803f40	0.0009784475
12	0x3c10e524	0.008843694
13	0x3d209cb5	0.039211947
14	0xbd4b0f9a	-0.049575426
15	0xbd4bed92	-0.04978711
16	0xbd45c30e	-0.04828172
17	0xbae7ab60	-0.0017674975
18	0x3cac9a26	0.021069597
19	0xbd000a00	-0.031259537
20	0x3d50b0b1	0.050949756
21	0xbd23156a	-0.039815344
22	0xbd63da14	-0.055627897
23	0xbaed01c0	-0.0018082187
24	0xbd56904a	-0.0523837
25	0x3cb01b02	0.021497253
26	0xbc3f4c3c	-0.011675891
27	0x3c8e00a2	0.017334286
28	0xbd36f3fc	-0.044666275
29	0xba11b4c0	-0.0005558245
30	0xbcc0297e	-0.023457285
31	0x3b6d21d0	0.0036183484

encoder.2.0.weight f4 [32, 32, 3, 3]
0	0x3ce57fce	0.028015044
1	0x3c62c804	0.013841633
2	0x3cedb51a	0.02901702
3	0x3d35402b	0.04425065
4	0x3b8bbd58	0.004264515
5	0x3d52daaf	0.051478084
6	0x3cea1952	0.028576527
7	0xbcb739aa	-0.022366364
8	0xbbc22970	-0.00592535
9	0x3ca6948a	0.0203345
10	0x3d689455	0.056782085
11	0x3cb0cca2	0.021581952
12	0x3c14e31c	0.00908735
13	0xbc52d054	-0.012867052
14	0xbd6dc3d7	-0.058048096
15	0x3d6a1693	0.057150435
16	0x3cd7d162	0.026344959
17	0xbc94eaa2	-0.018178288
18	0xbccad028	-0.02475746
19	0xbc73f214	-0.014889259
20	0xbd61984a	-0.055076875
21	0xbbf661c0	-0.007518977
22	0x3abdaf60	0.0014471821
23	0xbba6f950	-0.0050956383
24	0xbd01958e	-0.031636767
25	0xbc9124c8	-0.017717734
26	0xbc1cc1c8	-0.009567685
27	0xbd1d2bc8	-0.03837183
28	0x3d6de061	0.058075313
29	0xbd11f05d	-0.03562962
30	0x3d4c63fd	0.049900044
31	0x3d644563	0.055730235
32	0x397e3600	0.00024243444
33	0x3cb806e2	0.02246422
34	0xbd49c9e6	-0.04926481
35	0x3cfed54a	0.031107564
36	0xbd128eee	-0.03578084
37	0x3d19c265	0.037538905
38	0xbcf4220c	-0.029801391
39	0x3c24828c	0.01004089
40	0x3d5da6a7	0.05411401
41	0xbd03fd34	-0.032223895
42	0xbd4e9e2a	-0.050443806
43	0x3bd56478	0.006512221
44	0x3d693eb9	0.056944583
45	0xbcdb443e	-0.026765939
46	0xbcdb27f6	-0.026752453
47	0xbbe4e448	-0.006985221
48	0x3d26bb1d	0.04070579
49	0xbc3a76e4	-0.011380885
50	0x3cb26146	0.0217749
51	0xbc1b0e10	-0.009463802
52	0xbc3cd700	-0.011525869
53	0xbc1636b4	-0.009168316
54	0xbcc657c6	-0.024211776
55	0xbced3b6a	-0.028958995
56	0x3d0dbb71	0.034602586
57	0x3d126959	0.035745
58	0xbd37fca4	-0.04491867
59	0xbd2386ac	-0.039923355
60	0x3c84bdee	0.016203847
61	0xbca6203a	-0.020279039
62	0xbd131c0d	-0.035915423
63	0x3c4383ac	0.0119332485
64	0x3d259e47	0.04043415
65	0x3d0a41e7	0.033754256
66	0xb763f000	-1.3586134e-05
67	0x3cc85822	0.024456087
68	0x3d3403f7	0.043949094
69	0x3c1589f4	0.009127129
70	0xbd28c68a	-0.041204967
71	0xbbec7028	-0.0072155185
72	0xbd0034f7	-0.03130051
73	0xbd0092c8	-0.03138998
74	0xbc4f1c48	-0.01264102
75	0x3cfaa486	0.030596029
76	0xbc1353fc	-0.008992191
77	0xbd3da3d1	-0.046298806
78	0x3b536ba0	0.0032260194
79	0xbd2884ce	-0.041142277
80	0xbc529880	-0.012853742
81	0xbd4f5dac	-0.05062644
82	0xbd1dd4fd	-0.0385332
83	0xb83ba000	-4.4733286e-05
84	0x3b130890	0.0022435524
85	0x3d5e1d87	0.05422738
86	0x3c8bce2e	0.017066088
87	0xbcabd9fe	-0.02097797
88	0x3ce81ed6	0.028335016
89	0x3cf7f22e	0.030266847
90	0x3cb769fa	0.0223894
91	0x3c06e514	0.008233327
92	0xbc255de4	-0.010093186
93	0x3bb4c458	0.00551657
94	0xbd4c6d2e	-0.04990881
95	0xbc80b482	-0.015711073
96	0xbc560adc	-0.0130641125
97	0x3cf867f2	0.030323002
98	0x3d32058b	0.043462317
99	0x3b70f990	0.0036769845
100	0xbcf0abb4	-0.02937875
101	0x3d299b3d	0.041407812
102	0x3d1dff33	0.038573455
103	0xbd523b15	-0.051325876
104	0xbcacaf28	-0.021079615
105	0xbd5dd0cd	-0.054154206
106	0x3d5513f9	0.052021
107	0xbd52cc4a	-0.051464356
108	0xbd19d8c4	-0.03756024
109	0xbc3885dc	-0.011262383
110	0x3d2c9423	0.04213346
111	0x3c9a90ce	0.018867876
112	0xbd469820	-0.04848492
113	0xbd479a89	-0.04873136
114	0x3c981026	0.018562388
115	0x3d615a59	0.055017803
116	0x3d542b11	0.051798884
117	0x3d4db77b	0.05022381
118	0xbbd211c8	-0.006410811
119	0x3c248eac	0.010043781
120	0x3d654d57	0.05598196
121	0xbd43600e	-0.047699027
122	0xbbf5ca40	-0.0075009167
123	0x3caa9f2e	0.020827856
124	0x3b507c50	0.0031812377
125	0xbd11ef33	-0.03562851
126	0xbd01a2d2	-0.03164942
127	0x3c9a9362	0.018869106
128	0x3d4560db	0.04818807
129	0x3cf0cf86	0.02939583
130	0x3c980cd2	0.0185608
131	0xbd16af5b	-0.036788326
132	0xbd3387f4	-0.043830827
133	0x3ceff306	0.029290687
134	0xbcd0e50a	-0.02549984
135	0x3cf241ee	0.029572453
136	0x3c7e4724	0.015519891
137	0x3c474ee4	0.012164805
138	0xbcbaf460	-0.022821605
139	0xbbdc8fd8	-0.0067310147
140	0x3ccd7336	0.02507935
141	0x3d39e7cd	0.045387078
142	0xbc466784	-0.012109641
143	0xbd068f64	-0.03285159
144	0x3caf91c6	0.021431815
145	0xbd203e0c	-0.039121673
146	0x3d06ed27	0.03294101
147	0x3d575815	0.052574236
148	0x3b800a28	0.0039074607
149	0xbcae0b24	-0.021245547
150	0x3a20a380	0.0006127879
151	0xbcc7a56e	-0.024370875
152	0x3d2db533	0.042409133
153	0x3d2f620d	0.042818118
154	0xbbbff958	-0.0058585815
155	0x3b56f1c0	0.0032797903
156	0x3c85a83e	0.016315576
157	0xbd4427ba	-0.04788945
158	0x3d20d413	0.03926475
159	0xbbf90758	-0.0075997524
160	0x3d27736b	0.040881556
161	0x3c5751d4	0.013142068
162	0xbd0dd922	-0.034630902
163	0x3cd43eae	0.025908794
164	0xbd49381e	-0.049125783
165	0x3c44c68c	0.012010228
166	0x3c5d469c	0.013505604
167	0x3d70750d	0.05870538
168	0xbd53ec86	-0.05173924
169	0xbd2eee17	-0.04270753
170	0xbd186b28	-0.037211567
171	0xbc82b2f8	-0.01595448
172	0x3d384247	0.044985082
173	0xbb8e6ba8	-0.0043463297
174	0x3cb4cd8e	0.022070672
175	0xbca6a672	-0.02034304
176	0xbcaf67fa	-0.021411885
177	0xbc72bfb8	-0.014816217
178	0x3cf69b72	0.030103419
179	0xbc99d2ec	-0.018777333
180	0xbca2f042	-0.019889954
181	0x3c9b3b46	0.018949162
182	0xbd24e4c4	-0.04025723
183	0x3c826ffa	0.015922535
184	0xbab09960	-0.0013473444
185	0x3c1e08fc	0.009645697
186	0xbc441be0	-0.011969537
187	0xbd2615b2	-0.040548034
188	0x3c9fb452	0.019495163
189	0xbd0a1838	-0.033714503
190	0x3d5d1893	0.053978514
191	0xbb66a8d0	-0.0035195835
192	0xbc8e2cbe	-0.01735532
193	0xbc81d350	-0.015847832
194	0x3ce5adce	0.028036978
195	0xbcbbf3ca	-0.022943396
196	0x3c45d52c	0.01207475
197	0x3c0855e4	0.008321259
198	0xbc36b29c	-0.011150982
199	0xbc2a2714	-0.0103852935
200	0x3cf212e6	0.029550027
201	0xbd0ae0a7	-0.03390565
202	0xbd3fe200	-0.04684639
203	0x3b937778	0.004500326
204	0x3d0bc399	0.034122083
205	0xbd68773a	-0.05675433
206	0xbd3bc000	-0.045837402
207	0x3cf241a2	0.029572312
208	0x3d356b6b	0.044291895
209	0x3d0b6743	0.034034025
210	0x3d520a01	0.05127907
211	0xbc912ecc	-0.01772251
212	0xbd1a26b2	-0.03763456
213	0xbaa81da0	-0.0012826212
214	0x3c1c20bc	0.009529289
215	0xbd523f2e	-0.051329784
216	0x3d6bd009	0.057571445
217	0x3cc1f0ae	0.023674335
218	0x3ceb16ba	0.02869736
219	0xbcfedb18	-0.031110331
220	0x3d599d35	0.05312844
221	0x3b67fbc0	0.0035397857
222	0x3c99cf5a	0.01877563
223	0xbd2befa8	-0.0419766
224	0x3c914336	0.017732244
225	0xbd4e429a	-0.050356485
226	0x3d4dc891	0.050240103
227	0xbce53019	-0.027977036
228	0xbba74670	-0.0051048324
229	0x3c831f72	0.016006205
230	0xbba77a78	-0.005111035
231	0xbcd087f0	-0.025455445
232	0x3c4257c4	0.011861745
233	0x3caee14a	0.02134766
234	0x3b0eb050	0.002177257
235	0xbc087fd4	-0.008331258
236	0x3cbf2c3e	0.023336526
237	0x3cb69296	0.022286694
238	0x3d2fb331	0.0428955
239	0xbd405418	-0.046955198
240	0xbcd122d4	-0.025529303
241	0xbca73016	-0.020408671
242	0x3d1fafd9	0.03898606
243	0x3c121da4	0.0089182
244	0xbd63c337	-0.055606093
245	0xbc5d3774	-0.013501991
246	0xbd44d507	-0.04805472
247	0x3d505e37	0.0508711
248	0x3d0f0cbb	0.03492425
249	0xbc80afbc	-0.015708797
250	0xbc8629b2	-0.016377304
251	0x3d21aea1	0.03947318
252	0xbce4fc8d	-0.027952457
253	0xba9c3ba0	-0.0011919625
254	0x3d52c373	0.051455926
255	0x3cc6ad6e	0.02425262

encoder.2.0.bias f4 [32]
0	0x3d2bd169	0.041947756
1	0xbd1b3b9c	-0.037898645
2	0xbd468b85	-0.0484729
3	0xbc4e4a54	-0.012590963
4	0xbd433014	-0.047653273
5	0xbd6a97cf	-0.057273682
6	0xbc0c2794	-0.008554358
7	0x3b19bc60	0.0023458228
8	0x3cb76c3a	0.022390474
9	0xbd36052c	-0.044438526
10	0x3d12e841	0.035866026
11	0x3d6bc74f	0.057563122
12	0x3b85e108	0.0040856637
13	0xbc25e354	-0.010125
14	0xba8a2c80	-0.0010541826
15	0x3ca98e86	0.020697843
16	0xbd5dbed2	-0.05413706
17	0x3d57ca77	0.05268332
18	0x3cb155a2	0.021647278
19	0x3cf76c12	0.0302029
20	0xba865320	-0.0010248162
21	0xbce9fb1e	-0.028562125
22	0x3d33200d	0.043731738
23	0xbd0f1f52	-0.03494198
24	0x3c80ae76	0.01570819
25	0x3c890782	0.016727213
26	0xbd21c93c	-0.039498553
27	0xbd6dc16b	-0.058045786
28	0xbc98a660	-0.018634021
29	0xbcadcc4e	-0.021215584
30	0xbc8fbdc8	-0.01754655
31	0xbc18839c	-0.009308722

encoder.3.0.weight f4 [32, 32, 3, 3]
0	0xbd2639fb	-0.04058264
1	0x3d562e49	0.052290235
2	0x3c2c9794	0.010534186
3	0x3caf5076	0.021400671
4	0xbd4e4692	-0.05036027
5	0xbd65c008	-0.05609134
6	0xbcfe354e	-0.031031277
7	0xbd597248	-0.053087503
8	0xbd252420	-0.040317655
9	0x3c363574	0.011121143
10	0x3d3aa695	0.04556902
11	0xbb8cdad8	-0.004298549
12	0x3c6c8684	0.014436368
13	0x3d1a9d05	0.0377474
14	0xbd1de5ea	-0.03854934
15	0x3cd05922	0.025433127
16	0xbd5d5441	-0.05403543
17	0x3c86b9ca	0.016446013
18	0xbd63925a	-0.055559494
19	0xbd1bcb7a	-0.038035847
20	0xbd1cb0fa	-0.038254716
21	0x3d15b37f	0.036548134
22	0xbccaafb0	-0.024741977
23	0x3d324ab3	0.04352827
24	0xbd373192	-0.04472501
25	0xbd133394	-0.03593786
26	0xbb193c30	-0.0023381822
27	0xbd547e56	-0.051878296
28	0x3d1a9a33	0.037744712
29	0x3d65ab6b	0.05607168
30	0x3c7c388c	0.015394341
31	0x3d0ff417	0.03514489
32	0xbb925148	-0.004465256
33	0xbd0ed2f4	-0.03486915
34	0x3d18c2ff	0.037295338
35	0x3d1b3a47	0.037897374
36	0x3d37c0bb	0.044861536
37	0xbd3403bc	-0.043948874
38	0xbcbda5e8	-0.0231504
39	0xbce97b4b	-0.028501173
40	0xbd2ae7b2	-0.041724868
41	0xbd5b4453	-0.053531956
42	0xbd1d670a	-0.038428344
43	0x3d151cf5	0.03640457
44	0x3c3be494	0.0114680715
45	0x3ce93be2	0.028470937
46	0x3bf71518	0.0075403564
47	0xbbc84798	-0.0061120503
48	0x3c2e519c	0.010639574
49	0x3d01bca1	0.03167403
50	0xbd63ba00	-0.055597305
51	0x39c16d80	0.00036893412
52	0x3b8633a8	0.0040955134
53	0x3be18748	0.006882582
54	0xbd088c99	-0.03333721
55	0x3d00b6b1	0.031424228
56	0xbce9e6a1	-0.028552355
57	0xbc5326b0	-0.012887642
58	0xbced300e	-0.028953578
59	0xb998d880	-0.00029153004
60	0x3d3e5b35	0.0464737
61	0x3d33acbd	0.043865908
62	0x3ce91b7e	0.028455492
63	0xbd47cae0	-0.04877746
64	0xbd3b10ed	-0.04567044
65	0x3d14b72b	0.036307495
66	0x3ad5d0e0	0.001631286
67	0x3cf09a7a	0.029370535
68	0x3d02e1ad	0.031953502
69	0x3c3b51fc	0.011433121
70	0xbcaf7468	-0.021417812
71	0xbd1ac71a	-0.037787534
72	0xbd18610c	-0.037201926
73	0x3d3b85f7	0.045782056
74	0x3c70b584	0.014691714
75	0xbd0b9884	-0.034080997
76	0xbd0469fa	-0.03232763
77	0x3d3b5dbd	0.045743693
78	0x3d35a831	0.044349853
79	0x3b642c70	0.0034816526
80	0x3d288939	0.04114649
81	0xbc977b4c	-0.01849141
82	0x3ceb84c6	0.028749835
83	0x3bf879d8	0.0075828843
84	0x3ce19086	0.027534734
85	0xbd0e5980	-0.034753323
86	0x3d6e6a21	0.05820668
87	0xbd4a0ce4	-0.0493287
88	0x3c6a2f6c	0.014293533
89	0xbce7bd8d	-0.028288627
90	0xbd22011e	-0.039551847
91	0x3d64182d	0.05568712
92	0x3c420f24	0.01184443
93	0x3c94f57e	0.018183466
94	0xbd602d24	-0.05473055
95	0x3d2687ff	0.04065704
96	0x3d444b57	0.047923412
97	0xbd3e1083	-0.046402466
98	0xbc19033c	-0.00933915
99	0x3d1497a7	0.03627744
100	0x3c83214e	0.016007092
101	0xbc0bfe3c	-0.008544501
102	0xbd44be64	-0.048033133
103	0xbcabe04c	-0.020980977
104	0x3c5c8504	0.013459448
105	0xbd0208f2	-0.031746812
106	0xbccfbbfc	-0.025358193
107	0x3d04f233	0.03245754
108	0x3d01d4e3	0.031697165
109	0xbc0baea8	-0.008525528
110	0x3cee7f3e	0.029113408
111	0x3c1f5f2c	0.009727281
112	0x3aedcaa0	0.0018142052
113	0x3d563145	0.05229308
114	0x3d51ad51	0.051190678
115	0xbd5f2e1c	-0.054487333
116	0xbc883a50	-0.016629368
117	0xbd10e33e	-0.035372965
118	0x3d0ed583	0.03487159
119	0xbd50ca06	-0.050973915
120	0x3d6736a5	0.056448597
121	0xbd494173	-0.049134683
122	0xbd343685	-0.043997306
123	0x3d319365	0.043353457
124	0x3d057ecb	0.032591622
125	0xbbbbec88	-0.005734984
126	0x3d48ebcd	0.049053002
127	0xbba8d498	-0.0051522963
128	0xbd2adbe9	-0.04171363
129	0xbd6cd16a	-0.0578169
130	0x3d2c9925	0.042138238
131	0x3c32abb4	0.010905195
132	0x3d5a9273	0.05336232
133	0x3bc3a348	0.0059703924
134	0x3d0341f7	0.03204533
135	0xbd0b7c6a	-0.034054197
136	0xbcd53f00	-0.026031017
137	0x3c986aae	0.018605556
138	0xbd05f8dc	-0.032708034
139	0x3c997f6e	0.018737521
140	0xbd1033e0	-0.03520572
141	0x3a3da7c0	0.00072347745
142	0xbba4f9f8	-0.0050346814
143	0xbbedca58	-0.0072567873
144	0x3cb1fdf6	0.021727543
145	0xbcf1cc25	-0.029516289
146	0x3d0ed04d	0.03486662
147	0x3d023c51	0.031795803
148	0x3c5e8e84	0.013583783
149	0x3b053200	0.0020323992
150	0xbd706306	-0.058688186
151	0xbd6959f5	-0.056970555
152	0xbc8861ae	-0.01664814
153	0xbd0611b6	-0.032731734
154	0x3d31fde5	0.043455023
155	0x3a9af9e0	0.0011823736
156	0x3d2c03c3	0.041995775
157	0x39a74480	0.0003190376
158	0x3d00ee77	0.031477418
159	0x3d373b9b	0.04473458
160	0xbd367ae0	-0.044550776
161	0x3d116dc1	0.03550506
162	0xbb45d260	-0.0030185208
163	0x3cf0253e	0.029314633
164	0xbd1a8e58	-0.037733406
165	0x3d4795bb	0.04872678
166	0x3cb0c66a	0.021578986
167	0x3c2e1124	0.010624204
168	0x3d59aa69	0.05314103
169	0x3c79482c	0.015214961
170	0xbc8629d4	-0.016377367
171	0xbcaec228	-0.021332815
172	0x3d6bfa17	0.05761155
173	0xbd4a1e48	-0.049345285
174	0x3c4a012c	0.012329381
175	0xbc5dd88c	-0.013540398
176	0xbcc9d1a4	-0.024636097
177	0xbcac7a50	-0.021054417
178	0xbb494d80	-0.003071636
179	0xbc8056f4	-0.015666462
180	0xbd6761bb	-0.056489687
181	0x3c897e2a	0.016783793
182	0x3cb14b7e	0.021642443
183	0x3aacad80	0.0013174266
184	0xbd0d0166	-0.03442516
185	0x3d6b4725	0.057440896
186	0xbcbb4754	-0.02286116
187	0xbc6c02c4	-0.014404956
188	0x3c6d12e4	0.014469836
189	0x3d2ded6b	0.042462748
190	0x3d2ef01d	0.04270946
191	0x3cb5ef02	0.022208694
192	0xbc581384	-0.013188247
193	0xbcba1262	-0.022713844
194	0xbc44c104	-0.012008909
195	0x3c60c33c	0.0137184225
196	0x3d3913bb	0.045184832
197	0x3ca43f22	0.020049635
198	0xbd5497ce	-0.051902585
199	0xbce5ef26	-0.028068136
200	0x3d2574b9	0.04039452
201	0x3c83815e	0.016052898
202	0xbc9d999a	-0.019238282
203	0xbd04db5a	-0.032435752
204	0x3cba39a2	0.02273256
205	0xbc8f1fa2	-0.017471138
206	0xbca8f1a4	-0.020623036
207	0x3d343fc5	0.044006128
208	0x3d4c3813	0.049858164
209	0xbd09af9a	-0.033614732
210	0x3cca3fe6	0.024688672
211	0xbcf3ff07	-0.029784692
212	0xbd284c52	-0.04108841
213	0xbc4993dc	-0.012303319
214	0x3c115ae4	0.008871768
215	0xbd333e88	-0.043760806
216	0x3d12c645	0.035833616
217	0x3c1ac2bc	0.009445842
218	0xbd0e45bc	-0.034734473
219	0xbd65af4f	-0.05607539
220	0x3c771214	0.015079994
221	0xbc3198d8	-0.010839663
222	0xbcb47076	-0.022026282
223	0x3d49d9f9	0.04928014
224	0xbd3a3af9	-0.045466397
225	0xbc5de188	-0.01354254
226	0xbc33da34	-0.010977317
227	0xbd3b6ae4	-0.045756236
228	0x3d18e5e1	0.037328605
229	0xbca20fbc	-0.019782893
230	0xbce5fc19	-0.028074311
231	0xbd412336	-0.04715272
232	0xbcf4e0e0	-0.029892385
233	0xbabd3f60	-0.0014438443
234	0x3d0143ff	0.031558987
235	0xbb85b7d0	-0.00408075
236	0xbce436db	-0.027858188
237	0xbcb0a6b8	-0.021563873
238	0x3d0eef41	0.03489614
239	0x3c0b7d04	0.008513693
240	0xb9cc8900	-0.00039011985
241	0x3d50c08d	0.05096488
242	0x3ce98962	0.028507892
243	0x3d3b9373	0.045794915
244	0xbd30f564	-0.043202773
245	0x3d26d51d	0.040730584
246	0x3cf36e9e	0.029715832
247	0x3cd29e4e	0.025710251
248	0x3bdbffc8	0.006713841
249	0xbd5ed3de	-0.05440127
250	0x3cdcd7de	0.026958402
251	0xbc9d6008	-0.01921083
252	0x3d15e4af	0.036595043
253	0xbcdbeb2a	-0.026845533
254	0x3d430f75	0.047622163
255	0x3c230d5c	0.009951916

encoder.3.0.bias f4 [32]
0	0x3d1e6d8b	0.038678687
1	0xbd04e2a8	-0.03244272
2	0x3cd21dde	0.025649007
3	0xbd5e37c2	-0.054252394
4	0x3d3168f5	0.043312985
5	0xbd261656	-0.040548645
6	0x3c77a0cc	0.015114021
7	0xbbd9ecd8	-0.0066505484
8	0xbd3851a4	-0.044999734
9	0x3cd96076	0.026535254
10	0xbcd29a8a	-0.025708456
11	0xbc4726f4	-0.012155283
12	0xbbb515d0	-0.005526282
13	0x3bd57228	0.0065138526
14	0xbcdf74e2	-0.027277414
15	0xbb8429c0	-0.0040332973
16	0x3cf80326	0.030274939
17	0xbc04294c	-0.008066487
18	0x3c6fc9dc	0.014635529
19	0xbd5f92ad	-0.05458324
20	0xbd263572	-0.040578313
21	0x3d24453f	0.0401051
22	0x3bca95e8	0.006182421
23	0x3ce98f9e	0.028510865
24	0xbd19ef7b	-0.037581902
25	0xbd07422e	-0.0330221
26	0x3b9443a8	0.004524667
27	0xb8bba600	-8.947775e-05
28	0x3d0849a1	0.033273343
29	0x3d04607f	0.03231859
30	0xbc9e5606	-0.019328129
31	0xbcd679c8	-0.026181117

encoder.4.0.weight f4 [32, 32, 3, 3]
0	0x3d408949	0.047005925
1	0x3c80f23e	0.01574051
2	0x3bfd3e68	0.0077283867
3	0xbd1896b3	-0.037253093
4	0x3d34af3f	0.04411244
5	0x3cb26b42	0.02177966
6	0x3d657087	0.056015518
7	0xbbca2078	-0.0061684214
8	0x3c9a9042	0.018867616
9	0xbcd5d4b8	-0.026102409
10	0x3d53b801	0.05168915
11	0xbd571235	-0.052507598
12	0xbcaa5be6	-0.020795774
13	0x3c5f1924	0.013616834
14	0x3ce9c33e	0.028535482
15	0xbcebae3a	-0.028769601
16	0xbd36ff85	-0.044677276
17	0xbbf26170	-0.0073968694
18	0x3cbe4bda	0.023229528
19	0xbd0830ae	-0.03324955
20	0x3d474e3b	0.04865859
21	0xbcab6c6e	-0.020925727
22	0x3adf8a20	0.0017054714
23	0x3d5af74f	0.053458508
24	0x3d44c909	0.048043285
25	0xbd1d6dda	-0.03843484
26	0x3cb28b46	0.021794926
27	0x3baf04e8	0.005341161
28	0xbd458d11	-0.048230235
29	0xbca5e9d8	-0.020253107
30	0x3d263107	0.0405741
31	0xbce33ee2	-0.027739946
32	0x3c885a7e	0.016644713
33	0xbc712e2c	-0.014720481
34	0x3d2f23f7	0.042758908
35	0xbd139b5c	-0.036036834
36	0x3d662eeb	0.05619709
37	0x3c636d94	0.013881106
38	0xbd03d31b	-0.032183748
39	0x3d569461	0.0523876
40	0xbcf88140	-0.030335069
41	0x3d3b164d	0.045675565
42	0x3d264c39	0.040600035
43	0x3d70bca3	0.058773648
44	0x3c35af64	0.01108918
45	0xbcaad5e4	-0.020853944
46	0x3d06b1cd	0.032884408
47	0x3d289feb	0.041168135
48	0xbac59000	-0.0015072823
49	0x3d46a1a1	0.048493985
50	0x3d1c1d37	0.0381138
51	0xbd636e9d	-0.05552541
52	0xbc827d3a	-0.015928853
53	0xbd2cc4ab	-0.042179745
54	0x3d458d25	0.04823031
55	0xbcd816ac	-0.026377998
56	0x3c9b4892	0.018955503
57	0x3c8e5ac2	0.017377261
58	0x393b7500	0.00017877296
59	0x3d0ca317	0.034335222
60	0xbcf20aee	-0.029546227
61	0x3d3a1567	0.045430567
62	0xbcedf2ca	-0.029046435
63	0x3c368cfc	0.011142012
64	0xbd408b60	-0.04700792
65	0x3c8393ba	0.016061652
66	0x3bfed778	0.0077771507
67	0xbd673182	-0.0564437
68	0xbd2a8676	-0.04163214
69	0x3c1286ac	0.008943241
70	0x3ce5c9de	0.02805036
71	0x3d38aca9	0.045086537
72	0xbc7a4c6c	-0.015277009
73	0xbd24c110	-0.04022318
74	0xbd63e88d	-0.0556417
75	0xbbef1070	-0.0072956607
76	0xbc3a1e34	-0.01135974
77	0x3cb9cf4a	0.022681851
78	0x3b9479f8	0.0045311414
79	0xbbd42b98	-0.0064749233
80	0x3b86f038	0.004117992
81	0xbd1ab7d2	-0.03777296
82	0x3d21df31	0.039519493
83	0xbd3b4b2a	-0.04572598
84	0xbb0d40a0	-0.0021553412
85	0x3d28814d	0.041138936
86	0xbc8394d0	-0.01606217
87	0x3b434cb0	0.0029800348
88	0x3d176a75	0.03696676
89	0xbc9ba748	-0.019000664
90	0x3d178429	0.036991272
91	0x3cd6e2a6	0.026231121
92	0xbd409dd7	-0.047025528
93	0xbb706bc0	-0.0036685318
94	0x3d03a60f	0.032140788
95	0xbd5c5b03	-0.053797733
96	0x3d5fcdb1	0.054639522
97	0x3ccfe572	0.025377963
98	0x3d3a433b	0.045474272
99	0xbcae9c54	-0.021314777
100	0x3d40198b	0.04689936
101	0x3d5d8441	0.054081205
102	0x3d3234e9	0.04350749
103	0x3d61b99d	0.055108655
104	0x3d00ef83	0.031478416
105	0x3cf4bfce	0.029876616
106	0x3d44178b	0.047874015
107	0xbd394066	-0.04522743
108	0xbcd9474e	-0.026523259
109	0xbd38e849	-0.0451434
110	0x3d6ae4b3	0.05734701
111	0xbccdc2fe	-0.025117394
112	0x3d680c09	0.056652103
113	0xbd13dac0	-0.036097288
114	0x3ccce5ea	0.025011975
115	0xba64ad00	-0.0008723289
116	0x3c3ebecc	0.011642169
117	0xbcf4ea3f	-0.029896853
118	0xbd6dfb52	-0.058101006
119	0x3b472650	0.0030387826
120	0xbcf365d6	-0.029711645
121	0x3d5a18d1	0.053246323
122	0xbb9ba058	-0.004749339
123	0xbc57b2e0	-0.013165206
124	0xbca232c2	-0.019799594
125	0xbd2eeafb	-0.042704564
126	0xbce63350	-0.02810064
127	0x3cccc6ce	0.024997141
128	0x3d1c756b	0.038197916
129	0xbbe55a20	-0.006999269
130	0xbb488d20	-0.0030601695
131	0x3d12f065	0.03587379
132	0xbd07014a	-0.032960214
133	0xbbb51ec0	-0.0055273473
134	0xbd2b5bd6	-0.04183563
135	0x3d0cb6cb	0.034354012
136	0x3cf4cf1e	0.029883917
137	0x3cd3eb6e	0.025869098
138	0x3d1a5361	0.037677173
139	0x3cebf186	0.02880169
140	0x3d4d905d	0.050186504
141	0x3d31556b	0.04329435
142	0xbbc84398	-0.0061115734
143	0xbcf0079c	-0.029300503
144	0xbce917c5	-0.028453717
145	0xbd4bc0f2	-0.049744554
146	0x3d51ce75	0.051222283
147	0x3d2cc2bd	0.042177904
148	0xbd086dba	-0.03330777
149	0x3c8189ce	0.01581278
150	0x3d3493bd	0.044086207
151	0x3d5d4c5d	0.054027904
152	0xbc94361a	-0.018092204
153	0x3d4aa3b1	0.049472515
154	0xbd56a223	-0.05240072
155	0xbd423c4a	-0.047420777
156	0xbd182a1e	-0.03714954
157	0xbd2f9870	-0.042869985
158	0xbc2030a8	-0.009777226
159	0x3cfea726	0.031085562
160	0x3a975fa0	0.0011548884
161	0x3cc58312	0.02411035
162	0xbd14c951	-0.036324803
163	0xbd3e939f	-0.0465275
164	0xbd2b02fc	-0.041750893
165	0xbbcaf9e0	-0.006194338
166	0xbc6eb450	-0.014569357
167	0xbd4a8e5c	-0.04945217
168	0xbb925cb8	-0.0044666193
169	0x3d310d91	0.04322583
170	0x3cf34f36	0.029700857
171	0xbd4e2734	-0.050330356
172	0x3c8a1efe	0.016860481
173	0x3d175225	0.036943574
174	0xbbdde330	-0.0067714676
175	0x3d5b4355	0.05353101
176	0x3c94e576	0.018175822
177	0xbca32242	-0.019913796
178	0x3d23b39b	0.039966207
179	0x3be54ce8	0.0069976933
180	0xbc35da00	-0.0110993385
181	0xbceeb2c1	-0.02913797
182	0x3cdb9f2a	0.026809294
183	0x3cd15342	0.025552396
184	0x3d5f6869	0.054542933
185	0x3d58863f	0.052862402
186	0xbd6779c6	-0.056512617
187	0xbd1fb974	-0.03899522
188	0xbc6a2268	-0.01429043
189	0xbad816e0	-0.001648631
190	0x3d0edbe9	0.03487769
191	0x3d1f9efb	0.038969975
192	0xbd664977	-0.056222405
193	0x3c99a87a	0.018757094
194	0x3d5d723b	0.054064017
195	0xbca15f9c	-0.01969891
196	0x3d3c0539	0.04590342
197	0xbc99f92a	-0.018795568
198	0xbd470fcf	-0.04859906
199	0xbccd830e	-0.025086906
200	0xbb4c3150	-0.0031157322
201	0x3d177943	0.03698088
202	0x3d500035	0.050781447
203	0x3d015901	0.03157902
204	0xbbb92ed8	-0.005651336
205	0x3cb000be	0.021484729
206	0x3d099f87	0.033599403
207	0xbc116b70	-0.008875713
208	0xbd536be4	-0.051616564
209	0xbbd49de8	-0.0064885505
210	0xbd266770	-0.04062599
211	0x3cda5902	0.02665377
212	0x3d034b27	0.032054093
213	0xbd261aef	-0.04055303
214	0xbd363a9b	-0.044489484
215	0x3c6b6a8c	0.0143686645
216	0xbd4f8188	-0.05066064
217	0xbd012304	-0.031527534
218	0xbaab5520	-0.0013071634
219	0x3d280129	0.04101673
220	0xbbc4da40	-0.0060074627
221	0x3d2b7d25	0.041867394
222	0x3d48aa75	0.048990685
223	0x3ca62826	0.020282816
224	0x3ca78b5a	0.02045219
225	0x3d06ba13	0.032892298
226	0xbd225238	-0.03962919
227	0x3d3d1aef	0.046168264
228	0x3c46799c	0.012113955
229	0x3c6fc10c	0.014633428
230	0x3d2a4a77	0.04157492
231	0xbce18e16	-0.027533572
232	0x3cbde24e	0.0231792
233	0x3c293bc4	0.010329191
234	0xbca715d6	-0.020396154
235	0xbd2a3ac0	-0.041559935
236	0xbd2d37b0	-0.042289436
237	0x3d312a9b	0.043253522
238	0xbd00747e	-0.031361096
239	0x3d09a665	0.03360595
240	0xbd121b76	-0.03567072
241	0x3b2b8770	0.0026173256
242	0xbb8590f8	-0.0040761195
243	0x3ad57540	0.0016285554
244	0xbd1adc3c	-0.037807688
245	0x3cc0031e	0.023438986
246	0x3d159771	0.03652138
247	0x3d0661c7	0.03280809
248	0xbd353782	-0.04424239
249	0xbbe5ff10	-0.007018931
250	0x3cd0fca6	0.025511097
251	0x3d116f55	0.035506565
252	0x3d51cb15	0.051219065
253	0xbcbed6ce	-0.023295786
254	0x3caae3f6	0.020860653
255	0x3c566fec	0.013088208

encoder.4.0.bias f4 [32]
0	0xbc860c4a	-0.016363282
1	0xbcaf63f8	-0.021409974
2	0xbd215f6e	-0.03939765
3	0x3d3190c9	0.04335097
4	0x3d62867f	0.055304047
5	0x3bcf7ed8	0.0063322596
6	0xbd56456d	-0.052312303
7	0x3d6cec2d	0.057842422
8	0xbcc4e2ec	-0.024033986
9	0x3c128a04	0.008944038
10	0xbd427a85	-0.047480125
11	0x3d46fec5	0.04858281
12	0xbca831aa	-0.020531494
13	0x3c5ce05c	0.013481226
14	0x3cdcdbda	0.026960302
15	0x3d6c1f9f	0.057647344
16	0xbd180f0a	-0.037123717
17	0x3d5bd61b	0.053670984
18	0x3d5f0fdf	0.054458495
19	0xbcc9c7be	-0.024631377
20	0xbd391579	-0.045186494
21	0x3be31ec8	0.0069311596
22	0x3cdf02a2	0.027222935
23	0x3bf13778	0.0073613487
24	0xbc9dd748	-0.019267693
25	0xbcc37114	-0.02385763
26	0x3bd282e8	0.0064242966
27	0xbc0ed770	-0.0087183565
28	0xbcc00d1a	-0.023443747
29	0x3d3a8af5	0.045542676
30	0xbad87840	-0.001651533
31	0x3a8b8f80	0.0010647625

decoder.0.0.weight f4 [32, 32, 3, 3]
0	0x3c4d17ac	0.012517851
1	0x3d258659	0.040411327
2	0xbd5941c7	-0.053041246
3	0xbd0b2498	-0.033970445
4	0x3a8f69c0	0.001094155
5	0x3c2cf484	0.010556344
6	0x3cd146ca	0.02554645
7	0xbcae6a70	-0.021290988
8	0xbd6fbc46	-0.05852916
9	0xbc9c75a0	-0.019099057
10	0x3d177bd1	0.036983315
11	0xbd15ac74	-0.036541417
12	0x3a910a20	0.001106564
13	0xbc9d438a	-0.019197244
14	0xbd2d5078	-0.04231307
15	0xbd333639	-0.043752883
16	0xbc88002c	-0.016601644
17	0xbc5cd6a8	-0.013478912
18	0x3c0b481c	0.008501079
19	0xbd586a28	-0.052835613
20	0x3d1a6c01	0.037700657
21	0x3d053139	0.032517646
22	0xbd5ba164	-0.05362071
23	0x3c613bac	0.013747137
24	0xbced4061	-0.028961362
25	0xbc24b9d8	-0.010054074
26	0x3d2a0f61	0.041518573
27	0x3d27d3e1	0.040973548
28	0xbcab880e	-0.0209389
29	0x3d01afeb	0.03166191
30	0xbd632206	-0.05545237
31	0xbd1a4a94	-0.03766878
32	0xbc4cd7dc	-0.012502637
33	0x3b12a3b0	0.0022375397
34	0x3c0448bc	0.008073982
35	0x3c6f738c	0.014614951
36	0x3cef128a	0.029183645
37	0xbc74c720	-0.014940053
38	0xbb2165b0	-0.002462726
39	0x3ce7c2b6	0.028291088
40	0x3cf49cca	0.02985992
41	0x3bd077a8	0.0063619204
42	0x3c89a53e	0.016802426
43	0xbd50a200	-0.050935745
44	0xbc973a74	-0.01846049
45	0x3b48c2e0	0.0030633733
46	0x3cd8397a	0.026394594
47	0x3d31b5d5	0.0433863
48	0x3d3a5c41	0.045498136
49	0x3d48c67d	0.04901742
50	0xbcc9382c	-0.024562918
51	0x3a2ff240	0.0006711818
52	0x3b793cd0	0.0038030632
53	0xbbb12610	-0.0054061487
54	0xba8d4480	-0.0010777861
55	0xbd1b1a6e	-0.037867002
56	0x3cf87cb6	0.030332904
57	0x3c8bdbaa	0.017072517
58	0x3cf6bd76	0.030119639
59	0x3bec43b8	0.007210221
60	0x3c4ec03c	0.012619074
61	0x3d4e9503	0.050435077
62	0xbcea00bf	-0.028564809
63	0xbd1c797c	-0.038201794
64	0xbbb55c18	-0.00553466
65	0x3d506d39	0.050885413
66	0x3cdca0da	0.026932169
67	0xbcd84a16	-0.026402514
68	0xbc8f3692	-0.017482076
69	0xbc1c32a8	-0.009533562
70	0x3d6eb981	0.05828238
71	0xbd044f47	-0.032302167
72	0xbcedbe2f	-0.02902135
73	0x3bba9c98	0.005694937
74	0xbd130d06	-0.035901092
75	0x3d6bf167	0.057603266
76	0x399a8580	0.00029472634
77	0xbd3ba2bc	-0.045809492
78	0x3d08e409	0.033420596
79	0x3c335304	0.010945085
80	0xbd106be0	-0.035259128
81	0x3cb2c2e6	0.02182145
82	0xbc16a4c0	-0.009194553
83	0xbc5cd1a8	-0.01347772
84	0xbcaba760	-0.020953834
85	0xbd397312	-0.045275755
86	0x3c321a9c	0.010870602
87	0x3cb68062	0.022278015
88	0x3d0e14c5	0.034687776
89	0x3af5aa60	0.0018742792
90	0x3ced58de	0.02897304
91	0x3ae1bfe0	0.0017223321
92	0x3d4746e9	0.04865161
93	0x3d54bad1	0.051935975
94	0x3c127f5c	0.008941498
95	0xbc18ac44	-0.009318415
96	0xb8c55800	-9.410083e-05
97	0x3ca08972	0.019596789
98	0x3d20be55	0.039244015
99	0xbd06ae50	-0.03288108
100	0xb9dc4d00	-0.0004201904
101	0x3d2a02fb	0.04150675
102	0x3d0c340b	0.03422932
103	0x3a81c0a0	0.0009899326
104	0xbd2cb210	-0.042162
105	0xbd29151a	-0.04127989
106	0xbc553188	-0.013012297
107	0x3cc8c526	0.02450807
108	0xbcbdf49e	-0.023187932
109	0xbcf839e0	-0.030301034
110	0xbd21c3a0	-0.039493203
111	0x3c36df74	0.011161674
112	0x3c0f689c	0.008752968
113	0xbccd3d16	-0.025053542
114	0x3cd1ac9e	0.025595006
115	0x3cebd95a	0.028790165
116	0xbd1d80b2	-0.03845281
117	0xbce01e06	-0.027358066
118	0xbca47a48	-0.02007784
119	0xbc85a1cc	-0.016312502
120	0x3b528a10	0.0032125749
121	0x3be06b98	0.0068487637
122	0x3d268e53	0.040663075
123	0xbbc8b4f8	-0.006125089
124	0xbd4a1b32	-0.04934234
125	0x3c988c5a	0.018621612
126	0xbd513870	-0.051079214
127	0xbd34ba5c	-0.04412304
128	0xbcb76366	-0.022386264
129	0xbd1e00da	-0.03857503
130	0x3d5d1df1	0.053983632
131	0x3c3d12f4	0.011540163
132	0xbcc6dbba	-0.024274696
133	0xbc4c4980	-0.012468696
134	0x3d376ab1	0.044779483
135	0x3d2844ad	0.04108112
136	0x3cdeb6ea	0.02718683
137	0x3caaeb62	0.020864192
138	0x3d27493f	0.040841337
139	0x3d084647	0.033270147
140	0xbd4ef1e8	-0.05052367
141	0xbcede891	-0.02904156
142	0x3d5c1caf	0.053738292
143	0xbcda337a	-0.026635874
144	0xbd0e15d1	-0.034688774
145	0x3d6b0579	0.057378266
146	0xbd13f531	-0.036122505
147	0x3ca09d5e	0.019606289
148	0x3cce9a6e	0.025220122
149	0xbce2cdec	-0.027686082
150	0x3d4a0529	0.049321327
151	0x3cb243e6	0.021760892
152	0xbcf928b3	-0.030414915
153	0x3d53f6c1	0.051748995
154	0xb8922200	-6.9681555e-05
155	0x3ca995a2	0.020701233
156	0x3ccd8e86	0.025092375
157	0x3a20a100	0.00061275065
158	0x3c15ea34	0.009150077
159	0xbcc2c572	-0.02377579
160	0xbcf07589	-0.02935292
161	0x3be85978	0.0070907436
162	0x3d1ffcab	0.039059322
163	0xbd1d1a08	-0.038354903
164	0x3d5d84fd	0.054081906
165	0xbcb650da	-0.02225535
166	0x3d2590eb	0.040421408
167	0xbd48bfa9	-0.049010906
168	0xbbe68100	-0.007034421
169	0x3c8acf86	0.016944658
170	0x3d5af163	0.05345286
171	0x3c8ce806	0.017200481
172	0xbd5524bc	-0.052036986
173	0xbd23a6b3	-0.0399539
174	0x3ce1f866	0.027584266
175	0xbc8bbf36	-0.01705895
176	0x3bdaf278	0.0066817366
177	0xbd1b0adc	-0.037852153
178	0x3ce7dace	0.028302576
179	0xbcd686a0	-0.026187241
180	0x3d1f9b1f	0.038966294
181	0x3d234519	0.03986082
182	0xbc85d1e8	-0.016335443
183	0xbbf538b8	-0.007483568
184	0xbbcd5cd0	-0.0062671676
185	0x3c3be654	0.011468489
186	0xbbde7cf8	-0.0067898
187	0xbd1e8458	-0.03870043
188	0xbd6f45ee	-0.0584163
189	0xbc1741bc	-0.009231981
190	0xbd30dcc3	-0.043179285
191	0x3bb05518	0.0053812377
192	0xbd215ac7	-0.039393213
193	0x3cf12f9a	0.029441644
194	0xbc3af990	-0.011412039
195	0xbb1b06f0	-0.0023655258
196	0xb9dfce80	-0.0004268773
197	0xbd01be9a	-0.031675912
198	0x3d3ee0f5	0.046601254
199	0xbd5b1a31	-0.053491775
200	0xbd674bb9	-0.0564687
201	0x3d49b265	0.049242396
202	0xbcf185d4	-0.02948276
203	0xbb889430	-0.004168056
204	0xbd619fea	-0.055084147
205	0x3d612611	0.054967944
206	0xbb5f81b0	-0.00341044
207	0x3d204e5b	0.039137226
208	0x3cbc4942	0.02298415
209	0xbd3caef7	-0.046065297
210	0xbd2c8b9d	-0.042125333
211	0x3ca32286	0.019913923
212	0xbcbcf2ac	-0.023064934
213	0xbc7db770	-0.015485629
214	0xbd295527	-0.041340973
215	0xbcffc315	-0.031220952
216	0x3cf2877e	0.029605623
217	0xbd0876e0	-0.033316493
218	0x3d4e3387	0.05034211
219	0xbd495025	-0.049148697
220	0xbcfe9e1f	-0.031081257
221	0xbd370c0c	-0.044689223
222	0xbcf87a2a	-0.03033169
223	0x3c4a4a0c	0.012346756
224	0xbd34926a	-0.044084944
225	0x3c97ea46	0.018544327
226	0x3d5768dd	0.05259024
227	0x3c737d64	0.014861438
228	0x3cc8785a	0.02447145
229	0xbc3dc370	-0.01158224
230	0x3c0d5ba4	0.008627806
231	0xba8c6ac0	-0.0010712966
232	0xbd074b0e	-0.033030562
233	0xbd55e15d	-0.052216876
234	0xbbdb1e20	-0.006686941
235	0x3d564627	0.052312996
236	0xbd51c320	-0.051211476
237	0xbb869088	-0.004106585
238	0xbc3e24e8	-0.011605479
239	0x3bbd2d38	0.0057732128
240	0x3d2102ef	0.03930944
241	0x3cba293e	0.022724744
242	0xbd5cd9c9	-0.053918634
243	0xbb9cc5a0	-0.004784301
244	0xbd5d96d7	-0.05409893
245	0x3d4dd973	0.050256204
246	0xbbb1db40	-0.005427748
247	0xbd5274b1	-0.051380817
248	0x3d5ff139	0.054673407
249	0x3c87591a	0.01652198
250	0x3b4d7950	0.0031352825
251	0xbd07728b	-0.03306822
252	0x3d3bc401	0.04584122
253	0x3d15f5df	0.036611434
254	0x3cb367a2	0.021900002
255	0xbd4bd1bc	-0.049760565

decoder.0.0.bias f4 [32]
0	0x3c246cd4	0.010035712
1	0x3d6f608f	0.058441695
2	0x3d6314db	0.05543981
3	0xbd69a536	-0.057042323
4	0x3d14e09f	0.036347028
5	0xbd5d0206	-0.053957008
6	0x3d597d81	0.053098205
7	0x3c16dc44	0.009207789
8	0x3c57c98c	0.013170611
9	0xbca2d6e0	-0.019877851
10	0x3cece5aa	0.028918106
11	0xb9b3d680	-0.00034301355
12	0xbd034e44	-0.03205706
13	0xbac4ca00	-0.0015013814
14	0xbd37fd6a	-0.04491941
15	0xbb6ae6d0	-0.0035843141
16	0x3d39a3df	0.045322295
17	0x3d49a7b1	0.04923219
18	0xbd4d83a2	-0.050174363
19	0x3d0cd4cd	0.03438263
20	0xbc1149d8	-0.008867703
21	0xbca4a152	-0.020096455
22	0x3b8465b8	0.004040446
23	0xbc53bd30	-0.012923524
24	0xbd2846b6	-0.04108306
25	0x3a8cde00	0.0010747313
26	0xbca83696	-0.020533841
27	0xbd1003b0	-0.035159767
28	0x3cd36466	0.02580471
29	0x3d1488c9	0.03626326
30	0xbce6d517	-0.028177781
31	0xbd54dce4	-0.05196847
